toy_data/test_model10.model (torch_old, 687326 bytes, 18 tensors)

encoder.embedding.weight f4 [54, 64]
0	0x00000000	0.0
1	0x00000000	0.0
2	0x00000000	0.0
3	0x00000000	0.0
4	0x00000000	0.0
5	0x00000000	0.0
6	0x00000000	0.0
7	0x00000000	0.0
8	0x00000000	0.0
9	0x00000000	0.0
10	0x00000000	0.0
11	0x00000000	0.0
12	0x00000000	0.0
13	0x00000000	0.0
14	0x00000000	0.0
15	0x00000000	0.0
16	0x00000000	0.0
17	0x00000000	0.0
18	0x00000000	0.0
19	0x00000000	0.0
20	0x00000000	0.0
21	0x00000000	0.0
22	0x00000000	0.0
23	0x00000000	0.0
24	0x00000000	0.0
25	0x00000000	0.0
26	0x00000000	0.0
27	0x00000000	0.0
28	0x00000000	0.0
29	0x00000000	0.0
30	0x00000000	0.0
31	0x00000000	0.0
32	0x00000000	0.0
33	0x00000000	0.0
34	0x00000000	0.0
35	0x00000000	0.0
36	0x00000000	0.0
37	0x00000000	0.0
38	0x00000000	0.0
39	0x00000000	0.0
40	0x00000000	0.0
41	0x00000000	0.0
42	0x00000000	0.0
43	0x00000000	0.0
44	0x00000000	0.0
45	0x00000000	0.0
46	0x00000000	0.0
47	0x00000000	0.0
48	0x00000000	0.0
49	0x00000000	0.0
50	0x00000000	0.0
51	0x00000000	0.0
52	0x00000000	0.0
53	0x00000000	0.0
54	0x00000000	0.0
55	0x00000000	0.0
56	0x00000000	0.0
57	0x00000000	0.0
58	0x00000000	0.0
59	0x00000000	0.0
60	0x00000000	0.0
61	0x00000000	0.0
62	0x00000000	0.0
63	0x00000000	0.0
64	0xbf3730f2	-0.7155906
65	0x3d2d967d	0.042379845
66	0xbcbcb1a8	-0.023033932
67	0xbe334ec4	-0.17510515
68	0x3fbb63fb	1.4639887
69	0xbfa101d4	-1.2578683
70	0xbdc7a929	-0.097490616
71	0x3da7ea79	0.08199019
72	0x3f9e58c9	1.2370845
73	0x3e38101a	0.17974892
74	0x3f0fadeb	0.5612475
75	0x3e946252	0.28981262
76	0xbf6df890	-0.929574
77	0xbe9b65f3	-0.3035122
78	0xbf7e43ff	-0.99322504
79	0xbfbfac1d	-1.49744
80	0x3facb6cc	1.3493285
81	0x3f8eac80	1.1146393
82	0x3e68ecb2	0.22746542
83	0xbdea1d27	-0.114313416
84	0x3feca59f	1.8488044
85	0xbfaa4f0c	-1.3305373
86	0x3f183135	0.59450084
87	0x3fb7e365	1.436627
88	0x3f0f8e3e	0.5607642
89	0xbe5cd1be	-0.21564385
90	0xbf244519	-0.64167935
91	0x3eed7aa3	0.46382627
92	0xbf01149f	-0.5042209
93	0xbf981d0b	-1.1883863
94	0x3e2692b0	0.16266894
95	0x3fa0d117	1.2563809
96	0xbe526322	-0.20545629
97	0x3e526bec	0.20548981
98	0xbf0c718d	-0.54860765
99	0xbe906f58	-0.2820995
100	0x3e7da24d	0.24768944
101	0xbfa86bb9	-1.3157874
102	0xbeaaba95	-0.33345476
103	0x3f50925b	0.8147332
104	0x3ff6812e	1.9258173
105	0xbfbed97e	-1.4910123
106	0xbf3ea9a3	-0.74477595
107	0xbfc6474a	-1.5490506
108	0xbf0eb382	-0.5574266
109	0xbf8e61d4	-1.1123605
110	0x3d9d4cf6	0.07680695
111	0x3fa43822	1.282963
112	0xbe0657cd	-0.13119431
113	0xbef5ee0c	-0.48033178
114	0x3f3cf6ff	0.73814386
115	0xbf19d874	-0.60095906
116	0xbeb39f5e	-0.35082525
117	0x3ece0114	0.40235198
118	0x40031f40	2.0487823
119	0xbde53266	-0.11191253
120	0x3f03eacb	0.5153014
121	0x3f7cc640	0.98740005
122	0x3f55de8e	0.83542717
123	0x3f41c7af	0.7569532
124	0xbea75f7e	-0.32690042
125	0x3f01ecd3	0.5075199
126	0x3fc68331	1.5508786
127	0x3d8f6462	0.070015684
128	0x3fe77d45	1.8085104
129	0xbe77cdcc	-0.24199599
130	0x3e99120d	0.29896584
131	0x3e0a6766	0.13516006
132	0xbe0ccd15	-0.13750108
133	0xbf912381	-1.133896
134	0xbf0f0184	-0.5586169
135	0x3e96d17e	0.29456705
136	0xbe559d84	-0.20860869
137	0x3fc04f45	1.5024191
138	0xbf97efbb	-1.1870035
139	0xbdbf62bb	-0.09345003
140	0xbfe895f7	-1.8170766
141	0xbeb14a37	-0.34626934
142	0xbf96f8f3	-1.1794723
143	0xbf819410	-1.012331
144	0x3f95f352	1.171488
145	0x3c1c4116	0.009537002
146	0x3f6309e4	0.88686967
147	0xbfc0d927	-1.506627
148	0xbf36133d	-0.71123105
149	0x3fd10a49	1.6331264
150	0xbf936ded	-1.1517922
151	0xbf08eadb	-0.5348336
152	0x3e585fe7	0.21130334
153	0x3f361175	0.7112039
154	0xbed6c132	-0.4194427
155	0x3fa91031	1.3208066
156	0x3e3c1498	0.18367231
157	0xbfac2232	-1.3447936
158	0xbe07fb90	-0.13279557
159	0x3eff00a0	0.49805164
160	0x3fcf7030	1.6206112
161	0xbeecfa55	-0.46284738
162	0xbd7d3d80	-0.06182623
163	0xbf698c63	-0.9122984
164	0xbbbe81f8	-0.0058138333
165	0x3e85961c	0.26091087
166	0xbdd76651	-0.10517562
167	0x3ebd0d4d	0.3692421
168	0x3d535024	0.0515901
169	0xbf615ff1	-0.8803702
170	0x3f1cbf89	0.6122976
171	0x3d8f4068	0.069947064
172	0xbe667003	-0.22503667
173	0x3feccb93	1.8499626
174	0xbd81bbab	-0.06334623
175	0x40215724	2.5209436
176	0x3e4496e0	0.19198179
177	0x3f036bfe	0.5133666
178	0xbe8a949c	-0.27066505
179	0x3ef46188	0.4773066
180	0x3d5c14c4	0.05373074
181	0xbf8946d5	-1.0724741
182	0xbf5c18dc	-0.8597543
183	0x3ee1d2d5	0.44106165
184	0xbf235718	-0.6380477
185	0x3fbf5614	1.4948144
186	0xbea596cc	-0.3234161
187	0xbf1ae4cb	-0.6050536
188	0xbfd226d3	-1.6418098
189	0x3e415a6e	0.18882152
190	0xbf159aa6	-0.584391
191	0x3da8d6b3	0.082440756
192	0x3f269ec4	0.6508601
193	0xbf918cb8	-1.1371069
194	0xbf237ddb	-0.63863915
195	0xbf182851	-0.5943652
196	0x3fadaf30	1.3569088
197	0xbddf447c	-0.10901734
198	0x3ee56b5b	0.44808468
199	0x3f0f2415	0.5591443
200	0x3e392dae	0.18083832
201	0xbe16b6d3	-0.1471818
202	0x3e65e0d8	0.22449052
203	0x3ebb5bfa	0.3659361
204	0xbf3e4da5	-0.74337226
205	0x3fb64613	1.4240135
206	0xbdfed21f	-0.12442421
207	0x3f96ac67	1.1771363
208	0xbfb06e85	-1.3783728
209	0xbfae1ca0	-1.3602486
210	0xbe08a47c	-0.13343996
211	0xc02b8679	-2.6800826
212	0x3f15a748	0.58458376
213	0xbeb79176	-0.35853165
214	0x3edf7651	0.43644956
215	0xbf2659c4	-0.6498072
216	0xbd300d99	-0.042981718
217	0xbf3cf27d	-0.7380751
218	0x3fb81ebb	1.4384378
219	0xbfd23ad3	-1.6424202
220	0xbefda146	-0.49537104
221	0x3e31dc3a	0.17369166
222	0xbebd2e4f	-0.36949393
223	0x3f49ee12	0.7887889
224	0xbd15f059	-0.036606167
225	0x3f8efc09	1.1170665
226	0xbe32f3e3	-0.17475848
227	0xc02a01ba	-2.6563554
228	0x3dc01e67	0.09380799
229	0x3fff0c69	1.9925662
230	0xc0022f5e	-2.034141
231	0x401d213a	2.455153
232	0x3efdb1f5	0.49549833
233	0x3ebddc2c	0.3708204
234	0x3fa7d8ea	1.3113072
235	0xbe459594	-0.19295341
236	0x3f12c7df	0.5733623
237	0x3f9d3da4	1.2284436
238	0xbfa9cb88	-1.3265238
239	0x3fa46027	1.2841843
240	0xbfc32119	-1.5244476
241	0xbf733185	-0.94997436
242	0x3f4766fc	0.77891517
243	0xbf833dca	-1.0253232
244	0x3faa6b63	1.3314022
245	0xbd392570	-0.04520172
246	0x3f1d3eed	0.6142414
247	0xbfba9e3a	-1.4579537
248	0xbecf51e1	-0.40492156
249	0x3f0a3b16	0.5399641
250	0xbf84440f	-1.033327
251	0x3f494fea	0.78637564
252	0x3edd883a	0.43267995
253	0x3ed369a4	0.41291535
254	0xbe8e851a	-0.27835923
255	0x3f38bfd8	0.7216773

encoder.rnn.weight_ih_l0 f4 [192, 64]
0	0x3d1929ef	0.037393507
1	0x3dab08a4	0.083512574
2	0xbb9748f1	-0.0046168496
3	0x3c8552fc	0.016274922
4	0xbd1e254e	-0.038609795
5	0x3d54ee0b	0.051984828
6	0x3bce2391	0.006290861
7	0x3dfddd73	0.12395754
8	0x3db7492a	0.08949502
9	0xbd3a3806	-0.045463584
10	0xbd329a5a	-0.043604232
11	0xbc6d83ee	-0.0144967865
12	0xbcafcc11	-0.021459611
13	0x3c8770b1	0.016533228
14	0xbe1bbe1a	-0.15209237
15	0xbc65e09b	-0.014030601
16	0x3d90216e	0.07037626
17	0xbd86da67	-0.06584626
18	0xbd62b0a8	-0.055344254
19	0x3d92fdfa	0.071773484
20	0xbe11f944	-0.14255244
21	0x3e23f301	0.16010667
22	0x3a87fd97	0.0010375258
23	0x3c0199e5	0.0079102265
24	0xbd30a64a	-0.043127336
25	0x3dbdfcaf	0.09276711
26	0x3d0c2592	0.034215517
27	0xbd1eb9db	-0.038751464
28	0xbb887a0c	-0.0041649397
29	0xbc997f1e	-0.018737372
30	0xbe376efd	-0.17913432
31	0xbdc9abe5	-0.098472394
32	0xbc89ee5c	-0.016837291
33	0xbda6522b	-0.08121141
34	0xbe196cb9	-0.1498288
35	0xbd6f0144	-0.058350816
36	0x3e0d1604	0.1377793
37	0xbe18eb65	-0.14933546
38	0x3d5cf6f5	0.053946454
39	0xbdd3b901	-0.10338021
40	0xbda074cc	-0.07834777
41	0xbdc6e7ee	-0.09712206
42	0xbd821c78	-0.06353086
43	0xbd4f7f57	-0.05065855
44	0x3d21a0ab	0.039459866
45	0xbdb19652	-0.086712494
46	0xbd35ca8e	-0.044382624
47	0x3da1a40f	0.0789262
48	0x3daa24bd	0.083077885
49	0x3dec49e6	0.115375325
50	0x3db3e7b2	0.08784427
51	0x3b8f0a99	0.004365277
52	0xbc7a0061	-0.015258879
53	0xbe340e64	-0.17583615
54	0x3df62422	0.120186105
55	0xbcbc18e5	-0.02296109
56	0x3da46608	0.080272734
57	0x3db4e078	0.088318765
58	0x3dd1cd86	0.102442786
59	0xbd996a2d	-0.074909545
60	0x3d8d35a3	0.06894996
61	0xbd03563b	-0.032064658
62	0xbdb279c4	-0.08714631
63	0x3c1b81af	0.009491368
64	0x3d145bb3	0.036220264
65	0x3da603a0	0.0810616
66	0xbdd5daf5	-0.10442153
67	0xbd74d049	-0.05976895
68	0xbe1269dd	-0.14298196
69	0x3cbd0968	0.023075774
70	0xbe2b2de2	-0.16716722
71	0x3dbc221a	0.09186192
72	0x3d5359f4	0.051599458
73	0x3d38c8cb	0.045113366
74	0x3e141c17	0.1446384
75	0x3aa98f17	0.0012936321
76	0xbd473c91	-0.048641745
77	0x3d753ca5	0.05987229
78	0x3e00095f	0.12503575
79	0x3cf9883c	0.03046047
80	0x3d80c0f6	0.062868044
81	0xbc2f9fa0	-0.01071921
82	0x3e36d81b	0.17855875
83	0xbdab4195	-0.08362118
84	0xbe0bc1fa	-0.13648215
85	0xbc309511	-0.010777728
86	0xbc259b61	-0.010107846
87	0xbbde58a8	-0.006785471
88	0x3dbe7610	0.092998624
89	0xbd4228c1	-0.047402147
90	0x3dc089b5	0.094012655
91	0xbdcedfd1	-0.10101283
92	0x3d786069	0.06063882
93	0xbd97cee7	-0.0741251
94	0x3de26b3e	0.11055611
95	0x3d738367	0.059451487
96	0x3e1c816f	0.1528375
97	0xbdcf4d4c	-0.10122165
98	0xbe06f54a	-0.13179508
99	0x3dab5b32	0.083670035
100	0x3cdad06d	0.026710713
101	0x3deada7d	0.114674546
102	0xbdd04636	-0.10169642
103	0x3cbf98f4	0.023388363
104	0x3c8e07ef	0.017337767
105	0x3bce522e	0.0062964177
106	0x3d524247	0.05133274
107	0xbd53e09b	-0.051727872
108	0x3d43046a	0.04761163
109	0x3c0d334b	0.008618186
110	0xbc9c6160	-0.0190894
111	0xbd982a89	-0.07429988
112	0x3ce0a85e	0.027424034
113	0xbc592c40	-0.013255179
114	0xbcd43cc1	-0.025907876
115	0xbd50bd76	-0.050961934
116	0x3d8b2467	0.067940526
117	0x3d9a30e2	0.07528855
118	0xbdc11113	-0.09427085
119	0xbd410126	-0.047120236
120	0x3e0db096	0.13836893
121	0x3c263e30	0.010146663
122	0x3c8ac11a	0.016937781
123	0x3e135c7b	0.14390747
124	0xbdc47cd6	-0.09594123
125	0x3da09139	0.07840199
126	0x3d64b153	0.055833172
127	0x3d49decf	0.049284752
128	0x3d8fe0f1	0.07025326
129	0xbe2d10aa	-0.16900888
130	0x3db07214	0.08615509
131	0x3dfbc25d	0.12292931
132	0x3df8b7b4	0.121444136
133	0x3dccc1df	0.099979155
134	0x3d8fadc3	0.07015564
135	0xbcdc4841	-0.026889922
136	0x3db5da7e	0.08879565
137	0x3dc51ad7	0.0962426
138	0x3c38d772	0.011281835
139	0x3d2b7e20	0.04186833
140	0x3b2dbf83	0.0026511855
141	0x3da888e0	0.08229232
142	0xbd92964a	-0.071575716
143	0xbdc0c3ae	-0.09412323
144	0xbd410cfe	-0.04713153
145	0xbdf112d2	-0.11771168
146	0xbd3920b9	-0.045197222
147	0xbb7b5297	-0.0038348788
148	0x3d6b69ed	0.057474066
149	0x3dc0afea	0.09408553
150	0xbd98379b	-0.07432481
151	0x3bd4c321	0.0064929877
152	0x3dc64093	0.09680285
153	0xbc2d62a7	-0.010582603
154	0xbd292df6	-0.041303597
155	0xbd8d7e5a	-0.06908865
156	0xbd2e6e14	-0.042585447
157	0x3aa2ba1c	0.0012415084
158	0x3da793c3	0.0818248
159	0x3d89ac8c	0.06722364
160	0x3c296651	0.010339336
161	0x3c2be786	0.010492211
162	0x3d68c9fe	0.05683326
163	0xbde9f9ca	-0.114245966
164	0x3d902b2d	0.07039485
165	0xbe0046ea	-0.12527052
166	0xbd83cace	-0.06435166
167	0xbd01a5bd	-0.0316522
168	0xbd995ce4	-0.074884206
169	0xbdf998ce	-0.12187348
170	0x3e004413	0.12525968
171	0x3def2244	0.116764575
172	0xbb203b34	-0.002444935
173	0xbd4196e7	-0.047263052
174	0xbd937213	-0.07199492
175	0x3e101ed4	0.1407426
176	0x3dff1d27	0.12456732
177	0x3dc9f68f	0.098614804
178	0xbd884533	-0.06653824
179	0x3ce095a8	0.027415112
180	0xbd792261	-0.060823802
181	0xbc581a74	-0.013189901
182	0x3aced11b	0.0015778871
183	0xbc40e052	-0.011772232
184	0xbe2aee43	-0.16692452
185	0xbe058bf7	-0.13041674
186	0xbd88ad05	-0.06673626
187	0x3c387fea	0.011260966
188	0xbd0356d9	-0.032065246
189	0xbcf40708	-0.029788509
190	0x3da23110	0.07919514
191	0xbdefff51	-0.117186196
192	0x3dc79c66	0.097466275
193	0xbdb1b3d0	-0.08676875
194	0xbdc5c7f7	-0.09657281
195	0x3d5ab1e9	0.053392325
196	0xbe2c77ef	-0.16842626
197	0xbdc2b9a4	-0.095080644
198	0x3d8aca64	0.06776884
199	0xbd7ac096	-0.06121882
200	0x3b803f9a	0.003913832
201	0xbdcc47c1	-0.099746235
202	0x3ba452d7	0.005014758
203	0x3d4bac72	0.049725004
204	0x3e004ae4	0.12528569
205	0x3dc2b8bc	0.095078915
206	0xbd5daa97	-0.054117765
207	0xbe256ade	-0.16154048
208	0xbe1bd7bd	-0.15219016
209	0x3cd14512	0.02554563
210	0xbd4d873f	-0.05017781
211	0xbc75d582	-0.0150045175
212	0x3dea0efa	0.11428638
213	0xbd7ed4db	-0.062214714
214	0x3e09c86c	0.13455361
215	0x3ceebc29	0.029142456
216	0xbcb2ca01	-0.021824839
217	0x3dcb333b	0.09921881
218	0x3d7f2224	0.06228842
219	0xbdddcdea	-0.108302906
220	0xbc4d73a4	-0.012539778
221	0x3d6b1e13	0.057401728
222	0xbd765128	-0.06013599
223	0xbd2e8bf7	-0.04261395
224	0xbc9ce677	-0.019152863
225	0x3df28f5b	0.11843749
226	0x3dea33e5	0.11435679
227	0x3de7b99c	0.11314699
228	0xbd80f9c2	-0.062976375
229	0xbdcd3310	-0.10019505
230	0xbc92d913	-0.017925775
231	0x3d91a359	0.07111234
232	0x3d74a790	0.059730113
233	0x3dbfaaa0	0.09358716
234	0xbca0b50b	-0.019617578
235	0xbdf0751c	-0.11741087
236	0xbe340ed4	-0.17583781
237	0xbc810373	-0.015748715
238	0xbddfd990	-0.10930169
239	0x3dab53b3	0.08365574
240	0x3c3a6a9d	0.011377958
241	0x3e124b52	0.14286545
242	0xbcb318a1	-0.02186233
243	0xbafa7c5c	-0.0019110548
244	0xbd5514b0	-0.052021682
245	0xbd85254a	-0.06501253
246	0x3d76569e	0.0601412
247	0xbd925aac	-0.071462005
248	0x39383371	0.00017566771
249	0xbcda3999	-0.026638793
250	0x3cf6d9fe	0.030133244
251	0xbdec4a72	-0.11537637
252	0x3c3e0ce1	0.01159975
253	0xbb3523c5	-0.0027639729
254	0x3d7a0b4b	0.061045926
255	0x3dd01de8	0.10161954

encoder.rnn.weight_hh_l0 f4 [192, 64]
0	0x3dbf2efa	0.09335132
1	0x3dc68b9c	0.09694597
2	0x3b6b5568	0.003590906
3	0xbbee4093	-0.0072708814
4	0xbd8a9d9a	-0.06768341
5	0x3dfc7abc	0.12328097
6	0xbd9faf50	-0.0779711
7	0xbd2621a2	-0.04055942
8	0xbd8bce24	-0.068264276
9	0x39c33153	0.00037230048
10	0x3d43265d	0.047644008
11	0x3cc1e19f	0.023667155
12	0xbd31604e	-0.043304734
13	0xbda95e9c	-0.082699984
14	0xbd15cbb4	-0.03657122
15	0x3df9b35f	0.121924154
16	0x3d860cce	0.06545411
17	0x3c1775e7	0.009244419
18	0xbd10fa61	-0.03539503
19	0xbca11619	-0.019663857
20	0xba83bb7b	-0.001005038
21	0xbc9fe4d6	-0.019518297
22	0xbe18d95b	-0.14926665
23	0xbe02c9df	-0.1277232
24	0x3c71a7e6	0.014749503
25	0xba8e3776	-0.0010850269
26	0xbcabb0b3	-0.02095828
27	0xbd18ebbc	-0.03733419
28	0x3e262d95	0.16228326
29	0x3dd6fc4c	0.104973406
30	0x3c75fc28	0.015013732
31	0xbb948437	-0.004532363
32	0xbdfbd9f6	-0.12297432
33	0xbb59feec	-0.0033263518
34	0xbd8bfbe2	-0.06835152
35	0xbda5ed11	-0.081018575
36	0x3dc352e0	0.095372915
37	0xbca9bbe1	-0.02071947
38	0x3e0c5aaf	0.13706468
39	0xbd0f8697	-0.035040464
40	0xbcfb5ead	-0.030684793
41	0xbde60aeb	-0.11232551
42	0x3d8fd5a2	0.07023169
43	0xbbf7697d	-0.007550417
44	0x3d88d849	0.06681878
45	0x3dc57b20	0.09642625
46	0xbdbd91d9	-0.09256334
47	0x3db0590e	0.08610736
48	0x3d6a0a6e	0.057138853
49	0xbd6777a5	-0.056510586
50	0xbe06b3a8	-0.13154471
51	0x3d315f81	0.04330397
52	0x3daf3a3b	0.085560285
53	0xbdc20146	-0.09472899
54	0x3c7b13e5	0.015324567
55	0x3df1c2a6	0.11804704
56	0xbda2e037	-0.07952922
57	0x3d7a3d99	0.0610939
58	0x3d588f11	0.052870814
59	0xbd70cba9	-0.058787975
60	0xbc608179	-0.013702744
61	0x3d3d5385	0.04622223
62	0xbcc05e30	-0.023482412
63	0xbbccbcf0	-0.006248109
64	0xbd2d27dc	-0.04227434
65	0x3c49fab9	0.012327843
66	0x3dd880d8	0.1057145
67	0x3ce2061c	0.027590804
68	0xbe5141ad	-0.2043521
69	0xbd866386	-0.06561951
70	0xbc1ccce8	-0.009570338
71	0xbd4756b5	-0.048666675
72	0xbe22564f	-0.15853237
73	0xbcdc8f55	-0.026923815
74	0x3d8fa3fe	0.07013701
75	0xbb2c4c7b	-0.0026290703
76	0x3c7381aa	0.014862457
77	0xbd1b5931	-0.037926856
78	0xbd67d70d	-0.056601573
79	0x3cf83e96	0.03030328
80	0xbd659a79	-0.05605552
81	0x3a7998aa	0.0009521345
82	0x3c6f5233	0.014607
83	0x3bfa4a38	0.007638242
84	0x3e09e7a6	0.13467273
85	0xbdfce41d	-0.12348197
86	0x3d5f739f	0.054553624
87	0xbdb335c7	-0.087504916
88	0x3d7f9855	0.062401135
89	0x3e2cf844	0.16891581
90	0xbd7ce9ad	-0.061746288
91	0xbd9769f4	-0.07393256
92	0xbde043a0	-0.109503984
93	0x3e19bb62	0.15012887
94	0xbc5beadc	-0.013422694
95	0xbcc98413	-0.02459911
96	0x3da66811	0.08125318
97	0xbdf4f062	-0.11959912
98	0xbdc9624b	-0.09833201
99	0xbc8a6539	-0.01689397
100	0x3df1ff1a	0.11816235
101	0xbc95aded	-0.01827141
102	0xbd71a2db	-0.0589932
103	0xbdb8ca4a	-0.090229586
104	0xbdd8e60f	-0.10590755
105	0xbe119d0a	-0.14220062
106	0xbc3fc4ba	-0.011704618
107	0xbdd17388	-0.10227114
108	0x3df3a868	0.11897355
109	0x3d8b3e46	0.06798987
110	0xbc30de8e	-0.010795249
111	0x3e2bf5de	0.1679301
112	0xbdc50674	-0.096203715
113	0xbc0785a5	-0.008271609
114	0x3acc4c1d	0.0015586648
115	0xbdcc47fa	-0.09974666
116	0xbc097522	-0.008389743
117	0x3d89a16b	0.06720241
118	0x3ce3c17f	0.027802227
119	0x3d5f3817	0.05449685
120	0xbce5e500	-0.028063297
121	0xbbf89e98	-0.007587265
122	0xbd9eaf8f	-0.07748329
123	0x3d7c1047	0.06153896
124	0xbd14f31d	-0.036364663
125	0xbaf21420	-0.0018469132
126	0x3dd42301	0.10358239
127	0xbd919f56	-0.07110469
128	0x3d7b765e	0.06139218
129	0x3e00175e	0.12508914
130	0xbe0cff4b	-0.13769262
131	0xbc5ba57b	-0.013406153
132	0x3d6d1756	0.057883583
133	0x3c20ba34	0.009810019
134	0x3d6e7b0a	0.058222808
135	0x3d3ab871	0.045586053
136	0xbe1731fe	-0.14765164
137	0xbd877087	-0.0661326
138	0x3c27cf0f	0.010242238
139	0x3e1ac2c3	0.15113358
140	0x3a903fbc	0.0011005322
141	0xbd71c507	-0.05902579
142	0xbcea8c45	-0.028631339
143	0x3c381b89	0.011237034
144	0x3d01842d	0.031620193
145	0x3d6e3364	0.05815448
146	0x3df7754b	0.12082919
147	0xbe02550d	-0.12727757
148	0xbddb7fae	-0.10717712
149	0xbd381538	-0.04494211
150	0x3d740166	0.059571646
151	0xbd8b9035	-0.06814615
152	0xbd45a367	-0.048251536
153	0x3e05bfb6	0.13061413
154	0x3cd2ef14	0.025748767
155	0xbdb70a01	-0.08937455
156	0x3c9c7c50	0.019102246
157	0xbc3c7c90	-0.011504307
158	0xbdf13c48	-0.11779076
159	0xbd9d922c	-0.07693896
160	0xbd22b1f3	-0.039720487
161	0x3d9cc496	0.07654683
162	0x3d21249c	0.039341554
163	0xbd2eb3d3	-0.042651962
164	0x3cc34bf2	0.023839924
165	0x3d0534bb	0.03252099
166	0x3d0c6816	0.03427895
167	0x3d934ed6	0.07192771
168	0xbdb927ef	-0.0904082
169	0xbd1da5c4	-0.038488165
170	0xbdd2a974	-0.10286227
171	0xbe00e89d	-0.12588735
172	0x3b43e964	0.002989375
173	0xbdbba914	-0.091631085
174	0xbc740f67	-0.01489625
175	0xbd6c1db8	-0.05764553
176	0xbdf27a02	-0.118396774
177	0x3cdb8999	0.02679901
178	0xbd879b54	-0.06621423
179	0xbd0b1063	-0.033951174
180	0xbc991c92	-0.018690381
181	0x3dc0462c	0.09388384
182	0xbd856bab	-0.06514677
183	0x3d977cad	0.07396827
184	0x3db9a423	0.0906451
185	0xbdb8fd3f	-0.09032678
186	0xbd357ee6	-0.044310473
187	0xbda6f43f	-0.08152055
188	0xbe3115c7	-0.17293464
189	0x3d34494c	0.044015214
190	0xbc8d3e6b	-0.017241677
191	0x3c93841b	0.018007329
192	0xbc313084	-0.01081479
193	0x3d9444ea	0.07239707
194	0xbdf04cc4	-0.11733392
195	0x3dcfd8c5	0.101487674
196	0x3ddf0e1a	0.108913615
197	0xbd8befc9	-0.06832845
198	0x3d5a5e31	0.053312484
199	0x3df25258	0.11832112
200	0x3be4b316	0.0069793565
201	0x3d65869d	0.05603658
202	0x3d8dc7ec	0.06922898
203	0x3c98370d	0.018580938
204	0x3dd25622	0.10270335
205	0xbdbc464a	-0.09193094
206	0x3d15bcb4	0.036556914
207	0xbd1ef1bb	-0.03880475
208	0x3d7c4850	0.0615924
209	0xbe381612	-0.17977169
210	0x3ca0de16	0.019637149
211	0x3cc987c2	0.024600867
212	0xbda1c523	-0.07898929
213	0xbd8ab7c0	-0.06773329
214	0x3d24373a	0.04009173
215	0x3e194873	0.14969043
216	0x3c492abd	0.012278256
217	0x3d8813d1	0.06644405
218	0xbc56c5a9	-0.013108649
219	0x3dcb325a	0.09921713
220	0xbdaf6ca9	-0.08565647
221	0xbe421db4	-0.18956643
222	0x3e20b55b	0.15694182
223	0x3db10ad4	0.086446434
224	0x3e00c030	0.12573314
225	0x3d17d0e3	0.037064444
226	0x3e160fce	0.14654467
227	0x3c83d3b9	0.016092168
228	0x3d96e9b4	0.07368794
229	0xbcd9f1d1	-0.026604565
230	0x3c4b20ae	0.012397928
231	0xbe00187b	-0.12509339
232	0x3d8fd0a4	0.07022217
233	0xbd9089be	-0.07057522
234	0x3d88c2b5	0.066777624
235	0xbd4bf16f	-0.049790796
236	0xbd891f6d	-0.06695447
237	0xbe06d5ac	-0.13167447
238	0xbd1749e2	-0.036935695
239	0x3d36ca2f	0.04462641
240	0x3d105e5f	0.03524625
241	0x3c54d317	0.012989781
242	0x3d0d0bfb	0.034435254
243	0xbdcd832c	-0.10034785
244	0xbe28e4f6	-0.16493592
245	0xbd04b053	-0.03239472
246	0x3d9b4415	0.07581345
247	0x3e19ee0e	0.15032217
248	0x3e03edb6	0.12883648
249	0xbb2bd16a	-0.002621735
250	0x3dab80f0	0.08374202
251	0xbde730de	-0.112886176
252	0xbe6a3c18	-0.22874486
253	0x3d057fd5	0.032592613
254	0x3d8aa2e0	0.06769347
255	0xbca57890	-0.02019909

encoder.rnn.bias_ih_l0 f4 [192]
0	0x3de44b2b	0.1114715
1	0xbd8965df	-0.067088835
2	0x3ddd8877	0.10817044
3	0x3e31699c	0.17325443
4	0x3e61c579	0.22047986
5	0x3da8ca4c	0.0824171
6	0x3cd4666a	0.025927741
7	0x3c54071b	0.012941147
8	0x3cedd044	0.029029973
9	0x3d64d556	0.055867516
10	0x3e3458ba	0.17611971
11	0x3e006191	0.12537219
12	0x3e133548	0.14375794
13	0x3e124b56	0.14286551
14	0xbdcc26e7	-0.099683575
15	0xbdb3edeb	-0.087856136
16	0xbb8ebe69	-0.0043561948
17	0x3e82b1a9	0.2552617
18	0x3d80be17	0.06286257
19	0x3d9313f6	0.071815416
20	0x3d30f6bb	0.04320405
21	0x3c926eae	0.017875042
22	0x3d8b8f01	0.06814385
23	0x3dba96dd	0.09110806
24	0xbd0f41b2	-0.03497476
25	0x3de359ad	0.11101089
26	0xbc848d7b	-0.016180744
27	0xbb2f6aff	-0.0026766656
28	0x3be1fafd	0.006896375
29	0x3a88381d	0.00103927
30	0xbde7b7a5	-0.11314324
31	0xbcbac605	-0.022799501
32	0xbd1e9b7d	-0.038722504
33	0xbd9792ad	-0.07401023
34	0xbd5da7b7	-0.054115023
35	0x3ca13f75	0.019683579
36	0x3e3d2c76	0.18473992
37	0x3deb0101	0.11474801
38	0x3c237f7d	0.009979126
39	0x3e5b3153	0.21405534
40	0x3d95c400	0.07312775
41	0x3b4a5efa	0.0030879364
42	0x3d09d152	0.03364689
43	0x3dbe208a	0.0928355
44	0x3d1d6e75	0.03843542
45	0xbd68cd0e	-0.05683618
46	0xbd8040fb	-0.06262394
47	0x3df00867	0.117203526
48	0xbd0f7c36	-0.035030566
49	0x3df904ca	0.121591166
50	0xbd3eb2ad	-0.046557117
51	0x3d5c0c0f	0.053722437
52	0x3e3433dd	0.1759791
53	0xbcb8d3f7	-0.02256201
54	0xbbdbd4d2	-0.00670872
55	0x3e74b12a	0.23895708
56	0xbc25f751	-0.010129766
57	0xbc7f6e9b	-0.015590335
58	0x3d2db0f5	0.042405088
59	0xbd4c0035	-0.049804885
60	0x3e03d1af	0.12872957
61	0xbc1b9bf8	-0.009497635
62	0x3d9862df	0.07440733
63	0x3e2a3dc7	0.16625129
64	0xbcf87242	-0.03032792
65	0xbe453ffe	-0.19262692
66	0xbd7a16e5	-0.06105699
67	0xbca736c0	-0.020411849
68	0x3cdd8dc1	0.027045133
69	0xbdb4a368	-0.0882023
70	0xbe316479	-0.17323484
71	0xbdb38fbf	-0.08767652
72	0xbdc6bbb3	-0.097037695
73	0xbe2978c9	-0.16549982
74	0xbbeafcec	-0.007171264
75	0xbe2ba71d	-0.16762967
76	0xbdcff2d0	-0.10153735
77	0xbe187382	-0.14887813
78	0xbe0dc870	-0.13845992
79	0xbe3dfec9	-0.18554224
80	0xbdf57f93	-0.119872235
81	0x3c3db052	0.011577683
82	0xbe583c06	-0.21116647
83	0x3c4d8afb	0.012545343
84	0xbe2f375a	-0.17110959
85	0xbd893311	-0.06699193
86	0xbdeeebbb	-0.11666056
87	0xbe7763aa	-0.24159113
88	0xbd32120f	-0.043474253
89	0xbd9904b8	-0.07471603
90	0xbd10d099	-0.035355184
91	0xbd84a54d	-0.06476841
92	0xbe4e9e4c	-0.20177573
93	0x3cab87ae	0.02093872
94	0xbe135c6f	-0.1439073
95	0x3bcd6af9	0.0062688556
96	0xbd1a99a9	-0.037744198
97	0xbe20dbe1	-0.15708877
98	0xbc8430bf	-0.016136525
99	0xbdccfa93	-0.10008731
100	0x3d91f8cf	0.071275346
101	0xbe140eda	-0.1445879
102	0xbe377109	-0.17914213
103	0x3b7e4c18	0.003880268
104	0xbe19ae67	-0.15007935
105	0xbe262cf1	-0.16228081
106	0xbe26b4ff	-0.16279982
107	0x3d45bfaf	0.048278507
108	0xbe0784fb	-0.13234322
109	0xbe672a31	-0.22574688
110	0xbe2ed92e	-0.17075035
111	0xbcc1c364	-0.02365274
112	0x3ccdc88c	0.025120042
113	0xbd170ced	-0.03687756
114	0xbde3cacf	-0.11122667
115	0xbe0bddd4	-0.1365884
116	0x3afdf46c	0.0019375212
117	0xbc9d36a7	-0.0191911
118	0xbe31fe35	-0.17382129
119	0xbd939689	-0.07206447
120	0xbdba975b	-0.091109
121	0xbd820570	-0.06348693
122	0xbe7b823b	-0.24561398
123	0xbe091bf5	-0.13389571
124	0xbc8a97a9	-0.01691802
125	0xbd3bd15f	-0.04585397
126	0x3c2b9499	0.01047244
127	0x3bd63f28	0.0065382905
128	0x3e3425eb	0.1759259
129	0xbccb4617	-0.024813695
130	0x3d43920e	0.04774671
131	0x3d8f3106	0.06991772
132	0x3dac7b50	0.084219575
133	0xbe0aa6e7	-0.1354023
134	0x3b8da2c0	0.00432238
135	0x3d614de2	0.055005915
136	0xbda962f4	-0.08270827
137	0x3d5e7f49	0.054320607
138	0x3d1092fb	0.03529642
139	0x3d2c5131	0.042069618
140	0xbda77a21	-0.08177591
141	0xbc948cc0	-0.018133521
142	0xbe0c1752	-0.13680771
143	0xbdb7537b	-0.089514695
144	0xbd51cc42	-0.051220186
145	0xbdb49ce7	-0.08818989
146	0x3e3532b5	0.17695124
147	0x3d49e799	0.049293134
148	0xbd8b67bd	-0.06806896
149	0x3e1ef4fa	0.15523139
150	0x3dfb8917	0.12282007
151	0xbe0d32fb	-0.13788979
152	0xbdcfb8d5	-0.10142676
153	0xbdb63a39	-0.08897824
154	0xbe3c110f	-0.18365882
155	0x3dde9e83	0.108700775
156	0xbdb1dd06	-0.08684735
157	0xbdeead41	-0.11654139
158	0x3d287231	0.041124526
159	0x3db994da	0.09061594
160	0x3bac733e	0.0052627614
161	0xbe0c37fd	-0.13693233
162	0x3e1d3f71	0.15356232
163	0x3d8022a1	0.06256605
164	0x3e1fd817	0.15609775
165	0x3dc9b360	0.09848666
166	0xbd2a6d72	-0.04160828
167	0xbe04588d	-0.12924404
168	0x3c682f9a	0.014171505
169	0xbe09c887	-0.13455401
170	0xbe0cf71b	-0.13766138
171	0xbdc34858	-0.09535283
172	0x3dbcf116	0.09225671
173	0xbc41a949	-0.011820146
174	0x3e1e41e6	0.15454826
175	0xbe1d5aae	-0.15366623
176	0xbe39874e	-0.18118021
177	0xbdbc4414	-0.09192672
178	0x3e0086fd	0.12551494
179	0xbe192d6f	-0.14958738
180	0x3d692b81	0.056926254
181	0xbd5f6607	-0.05454066
182	0x3d888a56	0.066670105
183	0x3dcc3692	0.09971346
184	0x3db28c52	0.0871817
185	0xbde5392c	-0.11192545
186	0x3d86b617	0.065777
187	0xbd61f449	-0.05516461
188	0xbe15039d	-0.1455216
189	0xbd8d3b30	-0.06896055
190	0xbd090eb4	-0.033461288
191	0xbe2e9961	-0.17050697

encoder.rnn.bias_hh_l0 f4 [192]
0	0xbd897196	-0.06711118
1	0x3dab17a8	0.083541214
2	0xbd201e5c	-0.039091453
3	0x3e5eb3ad	0.21748228
4	0x3de41f23	0.11138751
5	0x3c3635ec	0.011121254
6	0x3d4d3592	0.050099917
7	0x3e11f671	0.14254166
8	0x3db0c16b	0.086306415
9	0x3d669c0e	0.05630117
10	0x3e22ce0d	0.15898915
11	0x3e3fd501	0.18733598
12	0x3e25d322	0.16193822
13	0x3d1d4f1e	0.03840553
14	0x3dcb1126	0.0991538
15	0xbde82dac	-0.11336836
16	0x3d8c2164	0.06842306
17	0x3e475dab	0.19469325
18	0xbd10e3a9	-0.035373364
19	0x3e3eb135	0.18622287
20	0x3daa2777	0.083083086
21	0xbdc941ab	-0.09826978
22	0x3d6006e2	0.054694064
23	0xbd590be0	-0.05298984
24	0x3dd8f632	0.10593833
25	0xbd3111e8	-0.043229967
26	0x3b963829	0.0045843315
27	0x3de13686	0.10996728
28	0x3daa0f3b	0.08303686
29	0xbdc7c8f3	-0.09755125
30	0xbd69be96	-0.057066523
31	0x3c5061b3	0.012718606
32	0x3e0517b1	0.12997319
33	0xbd13866f	-0.036016878
34	0x3d57240a	0.052524604
35	0x3dd9e3b3	0.10639133
36	0x3e09eb0f	0.13468574
37	0x3dcca45c	0.099922866
38	0x3d8679f4	0.065662295
39	0x3d5f0554	0.05444844
40	0xbd48f3f1	-0.049060766
41	0x3de4725b	0.11154624
42	0x3daf84ca	0.085702494
43	0x3e65735a	0.22407284
44	0x3e3ff5ba	0.18746081
45	0x3d8b4555	0.068003334
46	0x3d1be689	0.038061652
47	0xbd6cd84f	-0.057823475
48	0x3e128a49	0.14310564
49	0xbd155335	-0.036456306
50	0x3dc98453	0.09839692
51	0x3e1da960	0.15396643
52	0x3e0c0888	0.1367513
53	0x3db8ad9e	0.0901749
54	0xbd365fe0	-0.044525027
55	0x3e7ee015	0.24890168
56	0x3dbb462a	0.09144242
57	0x3d8b9588	0.0681563
58	0x3c16a0e2	0.009193631
59	0xbd84125c	-0.06448814
60	0x3caf2349	0.02137913
61	0xbd9849e4	-0.074359685
62	0xbaa94180	-0.0012913197
63	0x3d887d1d	0.066644885
64	0xbe46c807	-0.19412242
65	0xbe3f37c6	-0.1867362
66	0xbdd0b147	-0.10190063
67	0xbe37e943	-0.17960076
68	0xbde11838	-0.109909475
69	0xbe53bf27	-0.20678388
70	0xbe1d5370	-0.1536386
71	0xbe843724	-0.2582332
72	0xbc4b75e1	-0.012418241
73	0xbdaf1716	-0.08549325
74	0xbdee0db8	-0.116237104
75	0xbce68627	-0.02814014
76	0xbe1521d6	-0.14563689
77	0xbc34db0b	-0.011038552
78	0xbe874e88	-0.26427102
79	0xbe294bc3	-0.16532807
80	0xbe7bbb2b	-0.24583118
81	0xbdd7b81d	-0.10533164
82	0xbe493b44	-0.19651514
83	0x3d9d4200	0.07678604
84	0xbe688088	-0.22705281
85	0xbd893b25	-0.06700734
86	0xbe7494b6	-0.23884854
87	0xbe8a000f	-0.2695317
88	0xbe759103	-0.23981099
89	0x3d0ce0b0	0.034393966
90	0xbd1a0965	-0.037606616
91	0xbd373667	-0.044729616
92	0xbe2a5061	-0.16632225
93	0xbd3f4389	-0.046695266
94	0xbe42a87a	-0.19009581
95	0xbe0938b6	-0.1340054
96	0xbe0230da	-0.12713948
97	0xbcdb3bda	-0.026761938
98	0xbd67584e	-0.0564807
99	0x3c4cd6a5	0.012502347
100	0x3dda5d11	0.10662282
101	0x3c20f527	0.009824074
102	0xbe461408	-0.19343579
103	0xbd2c0983	-0.04200126
104	0xbe1a926a	-0.15094915
105	0xbe05db1f	-0.1307187
106	0xbe596c08	-0.21232617
107	0xbdacd30c	-0.084386915
108	0xbddc2ce2	-0.10750748
109	0xbe443d34	-0.19163972
110	0xbd60c910	-0.05487925
111	0xbdff39bf	-0.12462186
112	0xbd19175f	-0.037375804
113	0xbd1b4815	-0.03791054
114	0x3c8ff8cc	0.01757469
115	0xbe56eba9	-0.20988335
116	0xbd49a05b	-0.049225193
117	0x3ca75961	0.020428361
118	0xbd4faa89	-0.050699744
119	0xbda68240	-0.08130312
120	0xbd5d3c09	-0.054012332
121	0xbe30356d	-0.1720788
122	0xbd753c25	-0.05987181
123	0xbe82f50b	-0.25577578
124	0xbe167176	-0.1469172
125	0xbe2b7000	-0.16741943
126	0x3c764ee6	0.015033459
127	0x3cf00437	0.029298885
128	0x3dae72d5	0.08517996
129	0xbd508e67	-0.050917055
130	0xbc8275a9	-0.015925245
131	0xbd3d45f4	-0.04620929
132	0x3d1e10bb	0.038590174
133	0x3ca8c19c	0.020600133
134	0xbc06d823	-0.008230242
135	0xbd93986f	-0.07206809
136	0x3d67c86d	0.056587625
137	0xbdacddd3	-0.08440747
138	0xbe2a484e	-0.16629145
139	0x3e05fd24	0.13084847
140	0x3d1fce7d	0.039015282
141	0x3de8e501	0.11371804
142	0x3dba15c8	0.09086186
143	0x3d4a50c6	0.049393438
144	0xbe0b15e6	-0.13582572
145	0x3d9ff6b8	0.0781073
146	0x3e265f0d	0.16247196
147	0x3dd014aa	0.10160191
148	0x3d8c6533	0.0685524
149	0x3da350a6	0.07974367
150	0x3da90fee	0.082549915
151	0x3d709e08	0.05874446
152	0xbe0a9f31	-0.13537289
153	0x3e0ce2ac	0.13758343
154	0xbe188fe2	-0.14898637
155	0xbdb85b65	-0.09001807
156	0xbe1a1d71	-0.15050294
157	0xbd24ba2d	-0.040216614
158	0x3d8e8424	0.069587976
159	0xbdd5e70c	-0.10444459
160	0x3d8ecaf1	0.06972302
161	0xbd3d5db0	-0.046231925
162	0x3e08ee88	0.13372242
163	0xba912354	-0.0011073151
164	0x3e4304b8	0.19044769
165	0x3cb59c9c	0.022169404
166	0xbde0d4ae	-0.109780654
167	0x3bed5918	0.007243287
168	0xbc86b795	-0.01644496
169	0xbda4070d	-0.08009157
170	0xbce28977	-0.027653439
171	0xbdb384d4	-0.08765569
172	0x3d943840	0.07237291
173	0xbdb0d971	-0.08635224
174	0xbd1efa8d	-0.038813163
175	0xbb049eb7	-0.0020236203
176	0x3d8795bc	0.066203564
177	0xbe0bc62c	-0.13649815
178	0x3d5e00af	0.05419987
179	0xbb32f1dc	-0.0027304804
180	0xbdce7ff6	-0.10083
181	0xbe126242	-0.14295295
182	0xbda00f5a	-0.07815428
183	0xbaea9335	-0.0017896654
184	0x3d8ea0f5	0.06964294
185	0x3db99c82	0.090630546
186	0x3e0e988f	0.13925384
187	0x3ded5c97	0.11589926
188	0xbde607ee	-0.11231981
189	0x3dc8ce66	0.098049924
190	0x3e198f6a	0.14996114
191	0xbd7e884a	-0.062141694

encoder.rnn.weight_ih_l0_reverse f4 [192, 64]
0	0xbd3e4eca	-0.046461858
1	0xbdea86fe	-0.11451529
2	0xbca1f28a	-0.019768972
3	0xbda613ad	-0.081092216
4	0x3d783485	0.06059696
5	0xbd755131	-0.059891883
6	0xbd032e60	-0.03202665
7	0xbd8c2b69	-0.06844217
8	0xbcb23832	-0.021755312
9	0x3d0f2c9b	0.03495465
10	0x3d1a3e12	0.03765685
11	0xbcd98d0e	-0.026556518
12	0x3e203d79	0.1564845
13	0x3b086151	0.0020809958
14	0x3d93ef7f	0.07223415
15	0xbe86a64b	-0.26298746
16	0xbcfcca69	-0.030858235
17	0xbc0af62a	-0.008481542
18	0x3b463d99	0.0030249117
19	0xbd296846	-0.04135921
20	0x3d501ce7	0.050808813
21	0xbe06c8e1	-0.13162567
22	0xbd04f9a6	-0.032464646
23	0x3d707707	0.058707263
24	0x3a21287c	0.0006147695
25	0x3e1c7dac	0.15282315
26	0xbde6c282	-0.11267568
27	0xbce2aadc	-0.027669363
28	0x3d28981b	0.041160684
29	0x3d0c88eb	0.034310263
30	0xbdd10685	-0.102063216
31	0x3e0df319	0.13862266
32	0xbe0d0781	-0.13772394
33	0x3e03111c	0.12799495
34	0x3e1920a5	0.14953859
35	0x3e158fc2	0.1460562
36	0xbe295f15	-0.16540177
37	0xbd926a00	-0.07149124
38	0x3d2a5b20	0.04159081
39	0xbd4f6bc0	-0.050639868
40	0xbd1cd6aa	-0.038290657
41	0xbc933860	-0.017971218
42	0x3e02c70e	0.12771246
43	0x3cb97633	0.02263937
44	0xbdb5b8e1	-0.088731535
45	0x3d9c5ab0	0.07634485
46	0xbd895dd7	-0.06707352
47	0x3d937087	0.07199197
48	0xbde3d4a2	-0.11124541
49	0x3d8a8be8	0.06764966
50	0xbd3286f0	-0.043585718
51	0xbcef23ea	-0.02919193
52	0x3b97f6cd	0.0046375752
53	0xbcfe446a	-0.031038482
54	0x3c79f6ee	0.0152566265
55	0x3d682908	0.056679755
56	0x3d9dbb6a	0.07701762
57	0xbcddfaaa	-0.027097065
58	0xbdb440a0	-0.08801389
59	0xbd835e2e	-0.06414448
60	0xbe27cb80	-0.16386223
61	0xbda3dba7	-0.0800088
62	0xbdce3829	-0.100693054
63	0xbdbe6d46	-0.09298186
64	0x3da632f5	0.08115188
65	0xbe2cf605	-0.16890724
66	0x3cf71cb1	0.030165048
67	0xbd3bf897	-0.04589137
68	0x3d972ba0	0.07381368
69	0xbd9b4753	-0.075819634
70	0xbdbb168e	-0.09135161
71	0x3e401cb4	0.1876095
72	0xbdc25660	-0.09489131
73	0xbd93fb19	-0.072256275
74	0x3c053931	0.008131311
75	0x3d3ecc43	0.046581518
76	0x3decc109	0.11560256
77	0xbd3a42ec	-0.045473978
78	0xbd32c048	-0.043640405
79	0xbcd1f995	-0.025631705
80	0xbd16586a	-0.036705412
81	0x3da0d3ee	0.078529224
82	0xbdb2aff3	-0.08724966
83	0x38bfedb4	9.1518654e-05
84	0x3e04d675	0.12972434
85	0xbd17d660	-0.03706968
86	0x3e195961	0.14975502
87	0xbc92c307	-0.017915262
88	0xbdbe78b3	-0.09300365
89	0xbdceeba9	-0.10103542
90	0xbdd830dd	-0.10556195
91	0xbd361091	-0.044449393
92	0xbdd2c7e9	-0.10292036
93	0xbc8d102d	-0.017219627
94	0x3d5ede85	0.05441143
95	0xbc49be44	-0.012313429
96	0xbd38c843	-0.04511286
97	0x3dc3239d	0.09528277
98	0x3c3124c9	0.010811993
99	0x3db5e01f	0.08880638
100	0xbd8e23b0	-0.069404006
101	0x3da6374e	0.08116017
102	0x3ce1cc56	0.027563255
103	0xbd204f8f	-0.039138373
104	0xbd6e417e	-0.058167927
105	0xbcad1c9d	-0.021131808
106	0x3e44eb5c	0.19230407
107	0xbdb4bd74	-0.08825198
108	0x3d83225a	0.064030364
109	0x3e10bc59	0.14134349
110	0xbdf07ea4	-0.11742905
111	0xbc2522b1	-0.010079072
112	0x3c22abaf	0.009928628
113	0xbc9c87b9	-0.019107686
114	0xbd12fce1	-0.035885695
115	0x3d8f55fc	0.06998822
116	0xbd1d2147	-0.038361814
117	0xbdd5d3ae	-0.10440765
118	0x3d484a5a	0.048899032
119	0xbdedc0a8	-0.11609012
120	0x3db0fd0d	0.086420156
121	0xbda6465e	-0.0811889
122	0x3d8e374a	0.06944139
123	0x3cb0d89e	0.021587666
124	0xbd2b2b31	-0.041789237
125	0xbde14c59	-0.1100089
126	0xbd109b2c	-0.035304233
127	0xbb0f8b2a	-0.0021903017
128	0x3e0d88f5	0.13821776
129	0x3bc5c259	0.006035131
130	0x3db31ed1	0.08746112
131	0xbe229eff	-0.15880965
132	0xbe2c2bb8	-0.16813552
133	0xbd737e72	-0.05944676
134	0x3d732997	0.059365835
135	0xbc465b65	-0.012106751
136	0x3db90560	0.09034228
137	0xbe47d9eb	-0.19516723
138	0xbdc7d90d	-0.09758196
139	0xbc2c339c	-0.0105103515
140	0xbcb1f739	-0.02172433
141	0xbe1214a4	-0.14265686
142	0x3d28fee5	0.04125871
143	0xbdeefebe	-0.11669682
144	0x3de75938	0.11296314
145	0x3e4ca665	0.1998535
146	0xbdc5feef	-0.09667765
147	0x3db4fe44	0.0883756
148	0xbd34fec4	-0.044188276
149	0xbdf7c6ae	-0.12098442
150	0x3d8ef0cf	0.06979524
151	0x3d4e8bc4	0.05042626
152	0x3dc23b86	0.094840094
153	0xbddbd174	-0.107333094
154	0xbd8acdf7	-0.06777566
155	0x3d92b9bc	0.07164332
156	0x3dba8861	0.091080435
157	0x3d917356	0.07102077
158	0xbda476f6	-0.080305025
159	0x3cc733cc	0.02431669
160	0x3d8b3d74	0.06798831
161	0x3dd1307e	0.10214327
162	0x3d152a45	0.036417264
163	0x3d1dc53a	0.038518168
164	0xbdf28297	-0.11841314
165	0xbe02dd3b	-0.12779705
166	0xbde01cfc	-0.10943028
167	0xbde683c9	-0.11255605
168	0xbe109cea	-0.14122358
169	0x3e1bb054	0.15203983
170	0x3e0747c5	0.13210972
171	0x3dec9c10	0.11553204
172	0xbdd19634	-0.10233727
173	0x3e4db83c	0.20089811
174	0xbd719340	-0.05897832
175	0xbda647ce	-0.081191644
176	0x3d08c32b	0.03338925
177	0xbd8bec01	-0.068321235
178	0xbd3efa75	-0.046625573
179	0x3db19ecd	0.08672867
180	0x3e24e563	0.16103129
181	0xbe1a6ee0	-0.15081358
182	0x3e288c73	0.16459827
183	0xbd489773	-0.04897256
184	0x3c8033b1	0.015649648
185	0x3dc071df	0.09396719
186	0x3c2a9638	0.0104117915
187	0xbd9196e1	-0.07108856
188	0x3c222f67	0.009898997
189	0x3de86644	0.113476306
190	0xbde8af8c	-0.11361608
191	0x3daf8b07	0.08571439
192	0x3da83ebd	0.082150914
193	0x3cc5a14f	0.02412477
194	0xbdf9e4bb	-0.1220183
195	0x3e006027	0.12536679
196	0x3cc604e1	0.024172248
197	0x3d97d7cd	0.074142076
198	0x3d22a112	0.03970439
199	0x3ca5b3fb	0.020227423
200	0x3cbe3f1b	0.02322345
201	0xbba57203	-0.0050489916
202	0x3dbbf0ce	0.09176789
203	0xbdd96182	-0.10614301
204	0xbdd9f305	-0.106420554
205	0x3d912219	0.07086582
206	0xbc2fb83b	-0.010725076
207	0xbe12325c	-0.14277023
208	0xbc502614	-0.012704391
209	0xbd599e42	-0.053129442
210	0x3d833467	0.06406479
211	0x3d55341b	0.052051645
212	0xbd25b353	-0.04045422
213	0xbbf91cd5	-0.007602314
214	0x3d81daf4	0.0634059
215	0xbceb0bf4	-0.028692223
216	0xbe2e869a	-0.17043534
217	0x3e0e6dbb	0.13909046
218	0x3d8160ac	0.06317267
219	0x3d44de3b	0.048063498
220	0xbd4a0395	-0.049319822
221	0xbdf1f083	-0.11813452
222	0x3c45dabb	0.012076075
223	0x3dd67da8	0.10473186
224	0x3db5f3e4	0.08884409
225	0x3df3c92c	0.11903605
226	0x3dc8d672	0.09806527
227	0xbd80ef4a	-0.06295641
228	0xbd9db67e	-0.07700823
229	0xbdba0367	-0.0908268
230	0xbd4999f4	-0.049219087
231	0x3db286c2	0.08717109
232	0xbd86d9ca	-0.06584509
233	0x3db48a52	0.08815445
234	0x3d8d07ca	0.06886251
235	0xbdc629d1	-0.096759446
236	0xbe01c95a	-0.12674466
237	0xbb25afc4	-0.0025281766
238	0x3da13d11	0.078729756
239	0x3e031560	0.12801123
240	0xbdde5904	-0.10856822
241	0xbc7d064e	-0.015443398
242	0x3c887b94	0.01666049
243	0xbdd09d82	-0.10186292
244	0xbdd6f3b4	-0.104957014
245	0xbcac8558	-0.021059677
246	0xbde0582b	-0.10954317
247	0xbd7d9fca	-0.061919965
248	0x3d43ffbe	0.047851317
249	0xbbfa5687	-0.0076397094
250	0xbdb391ea	-0.08768065
251	0xbe42c7d2	-0.19021538
252	0xbd1b5e09	-0.037931476
253	0x3cba415d	0.022736246
254	0x3df733e6	0.12070446
255	0x3d65ab2c	0.056071445

encoder.rnn.weight_hh_l0_reverse f4 [192, 64]
0	0xbd8f84d6	-0.07007758
1	0x3e295027	0.16534482
2	0xbe22cde2	-0.1589885
3	0x3e053873	0.13009815
4	0xbbef317a	-0.0072995992
5	0x3e2b9a87	0.16758166
6	0x3ccd4590	0.025057584
7	0xbd91d59b	-0.0712082
8	0x3c6f5f27	0.014610088
9	0xbdc61883	-0.09672644
10	0xbd835346	-0.064123675
11	0x3cfd7204	0.030938156
12	0x3d8ef3ca	0.06980093
13	0xbdbe31df	-0.09286856
14	0xbdbd4abb	-0.09242769
15	0xba6eb0e4	-0.0009105338
16	0x3be7ab0a	0.00706995
17	0xbda2d879	-0.07951445
18	0x3ce534ad	0.02797922
19	0xbdbc79c7	-0.09202915
20	0xbe0108d1	-0.1260102
21	0xbdf76107	-0.12079053
22	0xbe104791	-0.140898
23	0xbd9623b4	-0.073310286
24	0xbe14b554	-0.14522296
25	0x3e4324c3	0.19056992
26	0x3e56df02	0.20983508
27	0xbda9b61f	-0.0828669
28	0xbe3ae582	-0.18251613
29	0x3d46d8b5	0.04854651
30	0x3e04d662	0.12972406
31	0xbd80e4eb	-0.06293663
32	0x3df66703	0.12031367
33	0xbe6872ff	-0.22700118
34	0xbd9628e6	-0.073320195
35	0x3d45c43d	0.04828285
36	0x3d86696a	0.06563075
37	0xbdbfbca2	-0.09362151
38	0x3b9cc95e	0.004784747
39	0x3e813b81	0.2524071
40	0xbd79bd4f	-0.060971554
41	0xbcb71c03	-0.022352224
42	0xbe887e9c	-0.26659095
43	0x3e087f14	0.13329726
44	0xbdb645bf	-0.08900022
45	0x3dcb8c0d	0.09938822
46	0xbde6c739	-0.112684675
47	0x3d9f2b89	0.077719755
48	0x3d9ddef9	0.07708544
49	0xbd09af82	-0.033614643
50	0xbd2f3c4e	-0.04278212
51	0xbdcd522e	-0.1002544
52	0x3d2ae7db	0.04172502
53	0xbe41cd4b	-0.1892597
54	0x3ca9748b	0.020685455
55	0x3e280b56	0.16410574
56	0xbdd49dac	-0.10381636
57	0xbdfc0731	-0.12306059
58	0xbe32c0b8	-0.17456329
59	0x3e28fd5f	0.16502903
60	0x3dfcef25	0.12350301
61	0x3e337f6d	0.17529078
62	0x3bf95856	0.0076094074
63	0xbd6665bd	-0.05624937
64	0x3d38fb0b	0.04516129
65	0x3dcceeb6	0.10006468
66	0xb939cce0	-0.00017719297
67	0x3dc4b6d4	0.09605184
68	0x3e1a2620	0.15053606
69	0x3d3d0720	0.046149373
70	0xbd3957da	-0.045249797
71	0xbde7d70d	-0.113203146
72	0x3c1354cd	0.008992386
73	0xbe09778b	-0.13424508
74	0xbdf764e4	-0.1207979
75	0xbe59452f	-0.21217798
76	0x3d42c988	0.047555476
77	0xbe36586d	-0.1780717
78	0xbd8a4692	-0.067517415
79	0xbd225a5f	-0.039636966
80	0xbdb71c9f	-0.08941006
81	0xbe0e1832	-0.13876417
82	0xbd7408ae	-0.05957859
83	0x3d7cdc43	0.061733495
84	0xbdce01a1	-0.100589044
85	0xbda1651e	-0.07880615
86	0xbe4cfe08	-0.2001878
87	0x3d315ad7	0.043299522
88	0xbdbc07f1	-0.09181202
89	0x3e6b87c5	0.2300101
90	0x3bc32d3f	0.0059563215
91	0x3d2d6084	0.042328373
92	0xbd122073	-0.035675477
93	0xbbe74c85	-0.0070586824
94	0x3ddec926	0.1087821
95	0xbe2560ad	-0.1615016
96	0x3d5007e9	0.050788794
97	0x3e378a68	0.17923892
98	0xbd0b3ba1	-0.033992413
99	0x3cb5918e	0.022164132
100	0x3e5ec60d	0.21755238
101	0x3e200617	0.15627323
102	0x3e0dd1d5	0.13849576
103	0x3d84f1f0	0.064914584
104	0xbdc1acb0	-0.09456766
105	0x3e256a98	0.16153944
106	0xbde92c2d	-0.11385379
107	0x3c11c6ce	0.008897496
108	0xbbfa0c9a	-0.0076308968
109	0x3d8b6bbf	0.0680766
110	0xbe85651e	-0.2605371
111	0x3c4f8e4f	0.012668206
112	0x3d9ecf3b	0.0775437
113	0xbd5b95af	-0.053609546
114	0xbcf104a4	-0.029421158
115	0xbe6dfbac	-0.23240536
116	0x3c4a0016	0.012329122
117	0xbe35a6c7	-0.17739402
118	0x3d76e4d4	0.06027682
119	0x3d9842cf	0.07434618
120	0x3d459ae8	0.048243433
121	0x3c2519e0	0.01007697
122	0xbe639f23	-0.22228675
123	0x3d5d334f	0.05400401
124	0x3dec8bb3	0.11550083
125	0x3e0abec7	0.13549338
126	0x3bcc161e	0.0062282225
127	0xbd2bb37f	-0.041919228
128	0x3e003e99	0.12523879
129	0xbde37f25	-0.11108235
130	0xbdbfbe7a	-0.093625024
131	0xbbc38d22	-0.005967752
132	0x3e00fdf3	0.12596874
133	0xbc576418	-0.013146423
134	0x3c588105	0.013214354
135	0xbe159995	-0.14609368
136	0x3cd7c1ed	0.026337588
137	0xbe06f91e	-0.13180968
138	0x3d998c69	0.07497484
139	0xbd91f9bc	-0.07127711
140	0x3c91f0d5	0.017815033
141	0xbe30b831	-0.17257763
142	0xbd8e0c7f	-0.06935977
143	0x3d56e25f	0.052461978
144	0xbd8164ca	-0.06318052
145	0xbde8cc0d	-0.113670446
146	0xbe0b0535	-0.13576205
147	0xbd5afc67	-0.053463366
148	0x3ddf5677	0.10905164
149	0x3ce29c3e	0.027662393
150	0xbd90ffb5	-0.07080022
151	0x3d34abbf	0.044109102
152	0xbd41b83a	-0.047294833
153	0x3e0e57f7	0.13900743
154	0x3dbf99cc	0.09355506
155	0xbe143c37	-0.14476095
156	0xbe287d51	-0.16454054
157	0x3dcc4e8f	0.09975921
158	0xbc904c35	-0.017614463
159	0xbd3d3f4b	-0.04620294
160	0xbdddbde3	-0.10827234
161	0x3c8ea4cc	0.017412566
162	0xbc31ac9f	-0.010844379
163	0xbde046ed	-0.10951028
164	0xbdbf8bb8	-0.09352821
165	0xbe4f3363	-0.20234446
166	0xbc5eea22	-0.013605626
167	0x3e1fb50c	0.15596408
168	0xbe24fd08	-0.16112149
169	0x3c0e4f3d	0.008685884
170	0xbdb38182	-0.08764936
171	0x3dc8f03a	0.098114446
172	0x3e5d66ab	0.21621196
173	0xbdd6d59a	-0.1048996
174	0xbdfaa22e	-0.122379646
175	0x3e523fda	0.2053217
176	0xbdb0d6cf	-0.086347215
177	0xbde587f7	-0.11207574
178	0xbd8d4a26	-0.06898908
179	0x3a2042c2	0.00061134633
180	0x3dc982a9	0.098393746
181	0xbe66c3ff	-0.22535704
182	0xbdacceab	-0.08437856
183	0xbd0e30a7	-0.034714367
184	0xbd259dec	-0.04043381
185	0x3d4549ed	0.048166204
186	0xbd8e85f7	-0.069591455
187	0x3e257038	0.1615609
188	0xbca50236	-0.020142656
189	0xbd4bc308	-0.049746543
190	0xbcbccf9a	-0.02304821
191	0xbe1422b9	-0.1446637
192	0xbdd67635	-0.10471765
193	0x3de94366	0.11389808
194	0x3c0fc016	0.008773824
195	0x3d202673	0.039099168
196	0xbd851348	-0.06497818
197	0x3da24f1c	0.07925245
198	0xbe4f0840	-0.20217991
199	0xbe4d3de1	-0.20043136
200	0x3cf0f8ba	0.029415477
201	0x3df83a40	0.12120485
202	0xbc8a7bc5	-0.016904721
203	0xbde53ca9	-0.11193211
204	0x3d7e892e	0.062142543
205	0xbdbd99fe	-0.09257887
206	0xbe428496	-0.1899589
207	0x3dbaebd2	0.091270104
208	0x3e23f324	0.1601072
209	0x3e46f8a1	0.19430782
210	0x3dad6519	0.084665485
211	0xbdc638ef	-0.09678828
212	0xbd7c56ef	-0.061606344
213	0x3d416a2d	0.047220398
214	0xbe6920b1	-0.22766377
215	0xbdf20a32	-0.11818351
216	0x3d7847d1	0.060615364
217	0x3be43906	0.0069648055
218	0xbd8acab4	-0.06776944
219	0x3db9da04	0.09074786
220	0xbe579184	-0.21051604
221	0x3c81fb28	0.015866831
222	0x3d905fdd	0.070495345
223	0xbdb2eb9f	-0.087363474
224	0xb9323cd6	-0.00016998066
225	0xbc27754a	-0.010220835
226	0xbc3082bc	-0.010773357
227	0x3e2d2ff8	0.1691283
228	0x3dbe4894	0.09291187
229	0xbcde5d3b	-0.027144065
230	0x3d996e92	0.07491793
231	0x3de7f541	0.11326075
232	0xbd20b1f2	-0.039232202
233	0x3e348324	0.17628151
234	0xbe5ae1d1	-0.21375205
235	0xbd284d95	-0.041089613
236	0xbcf0d65d	-0.029399091
237	0x3e7e1f04	0.24816519
238	0xbd6cc68b	-0.057806533
239	0xbe43fe09	-0.19139875
240	0xbcde7b4c	-0.027158402
241	0xbdc1d38b	-0.09464177
242	0x3bd05272	0.0063574845
243	0xba1d5a74	-0.0006002553
244	0x3d7bf871	0.06151623
245	0xbe138b1d	-0.14408536
246	0x3bb9799d	0.0056602494
247	0x3da6e3cb	0.08148917
248	0xbdc8a992	-0.09797968
249	0xbcaccd07	-0.021093858
250	0xbd238acc	-0.03992729
251	0xbc7d1dae	-0.015448971
252	0x3df8e917	0.12153833
253	0x3e224cca	0.15849605
254	0x3dc36d67	0.09542351
255	0xbda73ed0	-0.081662774

encoder.rnn.bias_ih_l0_reverse f4 [192]
0	0x3e6df096	0.23236308
1	0x3e794ddc	0.24346107
2	0x3cda5dcf	0.02665606
3	0x3d9b1721	0.07572771
4	0x3e21f1dd	0.1581492
5	0x3d9f9789	0.07792575
6	0x3dd7b868	0.105332196
7	0x3d59a6bd	0.05313753
8	0x3c9a177d	0.018810028
9	0x3dfd468c	0.123669714
10	0x3e5db148	0.21649659
11	0x3df7df08	0.12103087
12	0x3dfde07a	0.12396331
13	0x3d53c1d1	0.05169851
14	0x3a57e6d0	0.0008235993
15	0x3e69d3c9	0.22834696
16	0x3e135d1f	0.14390992
17	0x3e81b12b	0.2533048
18	0x3d32652a	0.04355351
19	0x3d8f6a3b	0.07002684
20	0x3d642021	0.055694703
21	0x3e02fafd	0.12791057
22	0x3d6abaa8	0.057306916
23	0x3d184921	0.037179116
24	0x3cf8c95c	0.030369453
25	0x3d50914b	0.050919812
26	0x3dfed8e4	0.12443712
27	0x3dd8fc95	0.10595051
28	0x3e0a56ac	0.13509625
29	0x3dfbf320	0.12302232
30	0x3cbc2c2b	0.02297028
31	0x3d694694	0.056952074
32	0x3e669bb0	0.22520328
33	0x3e5a0b57	0.21293388
34	0x3e0f8d32	0.14018705
35	0x3e5ff2d0	0.2186997
36	0x3d4e0483	0.05029727
37	0x3e78a9e4	0.24283558
38	0x3e9e16be	0.30876726
39	0x3dff48e2	0.12465073
40	0x3cca0a96	0.02466325
41	0x3dd6a1dd	0.10480092
42	0x3e9677d3	0.29388294
43	0x3d8fc4a5	0.07019929
44	0x3e297a9a	0.16550675
45	0x3ce07fdd	0.02740472
46	0x3d9188bf	0.0710616
47	0x3e14b7c9	0.14523233
48	0x3e872dea	0.26402217
49	0x3d5aaf47	0.053389814
50	0x3e87b390	0.26504183
51	0x3e58f6b1	0.21187855
52	0x3db95565	0.09049491
53	0x3e637cec	0.22215623
54	0x3e03358b	0.12813394
55	0x3e11f743	0.14254479
56	0x3b120e9d	0.0022286542
57	0x3dcc43f9	0.09973902
58	0x3e426158	0.18982446
59	0x3a672060	0.0008816775
60	0x3d33a7f6	0.043861352
61	0x3de7db5a	0.11321135
62	0x3e24758d	0.16060467
63	0x3dc26dcc	0.09493598
64	0xbe676655	-0.2259763
65	0xbde38ace	-0.11110459
66	0xbdb692da	-0.089147285
67	0xbe745b6a	-0.23862997
68	0xbde7c508	-0.113168776
69	0xbe87f574	-0.26554453
70	0xbde08cdd	-0.109643675
71	0xbe444b2e	-0.19169304
72	0xbdc3f803	-0.09568789
73	0xbdc80285	-0.097661056
74	0xbd230022	-0.03979505
75	0xbd4a1036	-0.049331866
76	0xbe2203d2	-0.1582177
77	0xbe36c843	-0.17849831
78	0xbe1ae3ee	-0.15126011
79	0xbe2284ad	-0.15870924
80	0xbe1fdee9	-0.15612377
81	0xbe332f5f	-0.1749854
82	0xbe6cf492	-0.23140171
83	0xbe80f3da	-0.25186044
84	0xbdc5543a	-0.096352056
85	0xbcfbfa56	-0.030759018
86	0xbd102958	-0.03519568
87	0xbe07fb57	-0.13279472
88	0x3c3981ae	0.011322422
89	0xbde8d985	-0.113696136
90	0xbe0f0c2a	-0.13969484
91	0xbd366177	-0.044526543
92	0xbe0c1b5d	-0.13682313
93	0xbdd892fe	-0.105749115
94	0xbe660ce3	-0.22465853
95	0xbe38ae19	-0.18035163
96	0xbe783ff0	-0.2424314
97	0xbe761140	-0.24030018
98	0xbe028f3b	-0.1274995
99	0xbe2e57ce	-0.17025682
100	0xbe448b39	-0.19193734
101	0xbe7df6e5	-0.24801214
102	0xbe3d0bfb	-0.18461601
103	0xbd3348cc	-0.043770596
104	0xbe00cd68	-0.12578356
105	0xbe88f989	-0.2675288
106	0xbd24c6f7	-0.04022881
107	0xbe7fe886	-0.24991044
108	0xbd157936	-0.03649255
109	0xbe0cc0cf	-0.13745426
110	0xbe264f38	-0.16241157
111	0xbe5cb28b	-0.21552484
112	0xbe44bf61	-0.1921363
113	0xbdc2a073	-0.095032595
114	0xbe25d719	-0.16195334
115	0xbe3baa9a	-0.18326798
116	0xbe12e779	-0.14346112
117	0xbd7c25f6	-0.06155964
118	0xbe259afe	-0.16172406
119	0xbe2d15a1	-0.16902782
120	0xbd8c7608	-0.0685845
121	0xbd8e9ebd	-0.06963871
122	0xbd6f0811	-0.058357302
123	0xbdc3f132	-0.09567489
124	0xbd3ffcb6	-0.046871863
125	0xbcf3c5dd	-0.029757435
126	0xbd0a876d	-0.03382056
127	0xbe3591d8	-0.17731416
128	0xbd7ab79c	-0.06121026
129	0xbdc2fe5b	-0.09521171
130	0x3e1684b9	0.14699067
131	0xbdfa891a	-0.12233181
132	0x3e195d82	0.14977077
133	0x3e4e4f71	0.20147492
134	0xbdf6be5c	-0.12048027
135	0xbded9aa7	-0.11601763
136	0x3e03bcf1	0.12865044
137	0xbdea8748	-0.11451584
138	0xbd8e9fd3	-0.06964078
139	0xbd520b69	-0.051280413
140	0x3d9e97ba	0.07743783
141	0xbe1a0d1c	-0.15044063
142	0x3c24dcb7	0.010062388
143	0x3a11181b	0.0005534903
144	0x3d368b47	0.04456642
145	0xbd4923b4	-0.049106315
146	0xbe116198	-0.14197385
147	0x3c684b6c	0.014178138
148	0x3d8617f7	0.0654754
149	0xbdb96406	-0.09052281
150	0xbe33ff5e	-0.17577884
151	0xbddc821e	-0.107670054
152	0x3d82aa4b	0.06380137
153	0x3dbc7d66	0.09203605
154	0x3ce43d43	0.027861243
155	0xbd9b9244	-0.07596257
156	0xbe42d079	-0.19024839
157	0x3dcc9baf	0.09990632
158	0x3d4a2b7a	0.04935787
159	0x3cd4e905	0.025990019
160	0x3e0f0f3d	0.13970657
161	0xbe45b04a	-0.1930553
162	0x3bc783b3	0.006088698
163	0xbe15dba2	-0.14634565
164	0x3deb872b	0.115003906
165	0xbe269033	-0.16265945
166	0x3e05335b	0.13007872
167	0xb82b3c13	-4.0825526e-05
168	0xbe0657c2	-0.13119414
169	0x3e13869d	0.1440682
170	0xbcd6713e	-0.026177045
171	0x3d1e0a5a	0.03858409
172	0x3d76f423	0.06029142
173	0x3c6695a0	0.014073759
174	0xbcb4ad5e	-0.022055324
175	0x3d2b12d1	0.04176599
176	0xbda4b8cc	-0.0804306
177	0xbde18b25	-0.11012868
178	0xbae7afc9	-0.001767629
179	0xbdaf0f82	-0.0854788
180	0x3b833c38	0.0040049814
181	0x3d76c4b6	0.060246192
182	0x3dbdf9fd	0.09276197
183	0x3df375ec	0.11887726
184	0xbdf9ef63	-0.122038625
185	0x3df81b92	0.121146336
186	0xbddca1d6	-0.10773055
187	0x3c80aa5b	0.015706232
188	0x3e0bcb9e	0.13651893
189	0x3c6eaf68	0.014568187
190	0x3dd9a46c	0.10627064
191	0x3de7d304	0.11319545
